CIFAR-100 already downloaded.
CIFAR-100 Dataset Loaded!
Train X: (45000, 3, 32, 32), Fine Y: (45000,), Coarse Y: (45000,)
Val   X: (5000, 3, 32, 32), Fine Y: (5000,), Coarse Y: (5000,)
Test  X: (10000, 3, 32, 32), Fine Y: (10000,), Coarse Y: (10000,)
===========================================================================
Layer (type)                       Output Shape                Param #
===========================================================================
 1. Conv1                           (1, 16, 32, 32)                 448
 2. Block[1-1]_Conv1                (1, 16, 32, 32)               2,320
 3. Block[1-1]_Conv2                (1, 16, 32, 32)               2,320
 4. Block[1-2]_Conv1                (1, 16, 32, 32)               2,320
 5. Block[1-2]_Conv2                (1, 16, 32, 32)               2,320
 6. Block[1-3]_Conv1                (1, 16, 32, 32)               2,320
 7. Block[1-3]_Conv2                (1, 16, 32, 32)               2,320
 8. Block[2-1]_Conv1                (1, 32, 16, 16)               4,640
 9. Block[2-1]_Conv2                (1, 32, 16, 16)               9,248
    └─ Shortcut[2-1]                (1, 32, 16, 16)                 544
10. Block[2-2]_Conv1                (1, 32, 16, 16)               9,248
11. Block[2-2]_Conv2                (1, 32, 16, 16)               9,248
12. Block[2-3]_Conv1                (1, 32, 16, 16)               9,248
13. Block[2-3]_Conv2                (1, 32, 16, 16)               9,248
14. Block[3-1]_Conv1                (1, 64, 8, 8)                18,496
15. Block[3-1]_Conv2                (1, 64, 8, 8)                36,928
    └─ Shortcut[3-1]                (1, 64, 8, 8)                 2,112
16. Block[3-2]_Conv1                (1, 64, 8, 8)                36,928
17. Block[3-2]_Conv2                (1, 64, 8, 8)                36,928
18. Block[3-3]_Conv1                (1, 64, 8, 8)                36,928
19. Block[3-3]_Conv2                (1, 64, 8, 8)                36,928
    GlobalAvgPool                   (1, 64)                           0
20. FC                              (1, 100)                      6,500
===========================================================================
Total weight layers:                                        20
Total params:                                               277,540
===========================================================================
Skip: ResNet-20_lr0.01_bs32_sgd

 Training ResNet-20_lr0.01_bs32_adam
[Epoch 1]
  Iter   0/1406: Loss 5.8500
  Iter  10/1406: Loss 5.0474
…
